qonnx_fragm_model.onnx (onnx, 30961 bytes, 44 tensors)

Quant_0_param1 f8 []
000000 00 00 00 00 00 00 c0 3f
       0.125

Quant_0_param0 f4 [9, 10]
000000 1d 00 80 3d 1a c6 0e 3f ec 74 28 3f 77 7d 9d be
       0.062500216 0.5577103 0.6580341 -0.30759785
000010 00 00 80 bd 29 94 92 3c 18 cb 99 be 29 a5 5b 3f
       -0.0625 0.017892914 -0.3003776 0.8579889
000020 74 26 6c 3e 03 00 80 bd 35 c0 87 3e 4f 23 8e bd
       0.23061544 -0.06250002 0.2651383 -0.06940328
000030 89 a1 4f be 29 29 5b be 47 ed f4 be c2 bf 10 bc
       -0.20276465 -0.2140242 -0.47837278 -0.008834781
000040 1b 1c 05 bd c3 d6 3f be 4a ad 49 be fc 05 13 be
       -0.032497507 -0.18734269 -0.19695011 -0.14357752
000050 28 4f ba 3e d5 0f 4c 3f 01 00 80 bd f1 b1 a4 3c
       0.36388516 0.7971166 -0.06250001 0.02010438
000060 88 b1 4e be 3e d3 69 be 9b 72 29 be ea df e6 bd
       -0.2018491 -0.22834489 -0.16547625 -0.11273177
000070 ff f0 51 be 4a 6f 13 be 9d 39 2f bc aa 77 3d bf
       -0.20502089 -0.14397922 -0.010694888 -0.7401072
000080 f3 bf c5 be 52 78 0a be bf d1 df 3e 16 cc 16 bd
       -0.38623008 -0.13522461 0.4371471 -0.036815725
000090 23 9a 07 3f c9 de 9f 3e dc 1e 84 be c6 21 a8 3e
       0.5296957 0.3122466 -0.25804794 0.32838267
0000a0 0d cd f9 3d 31 44 45 3f 4a 4a c4 3e d7 58 53 3e
       0.121973135 0.77057177 0.38337928 0.20639358
0000b0 ba 27 a0 3e 9d 50 e8 bc 01 00 80 3d 9b b0 bc 3e
       0.3128031 -0.028358752 0.06250001 0.3685349
0000c0 b8 d6 90 3d 3e 9c c8 3b 70 ad 3c bf 8e 60 84 3f
       0.07072204 0.006122141 -0.73702145 1.0341966
0000d0 54 42 d3 3e 20 a8 24 be e1 23 df 3d 81 62 01 3f
       0.41261542 -0.1607976 0.10895515 0.5054093
0000e0 55 46 7a 3e 71 b2 67 3f 01 00 80 3d ae f4 43 bd
       0.24440892 0.90506655 0.06250001 -0.047840767
0000f0 11 f7 d2 3d d4 b3 5b be 97 e9 43 3e 0d d1 91 3d
       0.103010304 -0.21455318 0.19132076 0.071199514
000100 b7 a2 0c bf 1d df 58 3f 61 f1 95 be 68 e6 81 3e
       -0.54935783 0.84715444 -0.2928572 0.253711
000110 12 35 0b bf 42 a7 6a 3e ff ff df 3e 9a 79 9b be
       -0.54377854 0.22915366 0.43749997 -0.30366212
000120 fc 5e b2 3d a8 82 89 3d 00 00 80 bd 20 59 a3 3e
       0.08709523 0.06714374 -0.0625 0.31903934
000130 95 01 a4 3d 83 d3 7b 3f 1a 17 83 3d c1 b7 08 3e
       0.08008114 0.98369616 0.06400891 0.13351347
000140 74 bd 07 3e 1a 50 a2 3e 35 ba fa 3e b6 26 81 3e
       0.13255864 0.31701738 0.4897019 0.25224847
000150 44 44 4a be 01 00 10 3f e0 44 82 3d 80 c5 52 3f
       -0.19752604 0.56250006 0.06360793 0.8233261
000160 8e 64 6e be bc a8 5a 3e
       -0.23280546 0.2135343

Quant_1_param0 f4 [10]
000000 fc 37 72 be e0 1f fa 3e b0 8b 3a 3e fe ff 3f be
       -0.23654169 0.48852444 0.18217349 -0.18749997
000010 33 c0 a7 3e 2d a1 14 3f 7b 8e 56 3e ed 47 ea 3e
       0.32763824 0.58058435 0.2095279 0.45758
000020 6c a2 57 3d ef ff 7f 3d
       0.052645132 0.062499937

Quant_2_param0 f4 [6, 9]
000000 22 21 37 3f a4 1a 1e bd 1e 82 ff be 05 34 75 bf
       0.7153493 -0.038599625 -0.4990396 -0.957825
000010 03 75 21 3e c7 ee 2b be 8c 98 06 3f e7 e0 3f 3f
       0.15767293 -0.16790305 0.5257652 0.7495255
000020 57 48 b9 3c 44 70 45 3f f6 ef 0d bf 00 00 80 3d
       0.022617502 0.7712443 -0.55444276 0.0625
000030 b7 74 2c be 60 30 db 3e 33 3c 3c 3e 99 18 fa bd
       -0.16841398 0.42810345 0.18382339 -0.12211723
000040 1b ee dd bd c4 0d 09 3f 27 72 73 3f 93 27 7d 3d
       -0.10836431 0.5353663 0.9509606 0.06180532
000050 0a 47 8e 3d 32 9d 4b 3e 0b 6a ec 3e 12 78 46 3e
       0.069471434 0.19884184 0.46174654 0.1938174
000060 b4 5e 84 be 97 1d 62 be 87 ea 90 3e 18 f3 d5 3d
       -0.25853503 -0.220816 0.2830393 0.10446757
000070 db d3 10 bf 89 b4 3a 3f 48 c6 f4 3e 48 ec 9d 3d
       -0.56573266 0.72931725 0.47807527 0.07711083
000080 08 0a b4 3e 02 00 a0 be 30 b7 09 bf f7 1b 15 be
       0.35163903 -0.31250006 -0.53795147 -0.14561449
000090 0b 30 91 be 63 a5 bf be 9f a0 2f 3f 4d 38 b0 3e
       -0.28356966 -0.37430868 0.68604463 0.34417954
0000a0 40 6f 65 3f b6 03 5a 3f 64 61 88 3e 6f c1 8b 3e
       0.8962288 0.8516191 0.26636803 0.27296016
0000b0 5f b1 31 be 35 17 56 3e 8a c7 38 be bb 75 89 3f
       -0.17352818 0.2090729 -0.18044868 1.0739053
0000c0 39 61 07 bf 7d c3 14 3e 05 e1 f7 3e db ef 3b 3e
       -0.52882725 0.14527698 0.48413864 0.18353216
0000d0 42 a0 05 3e c1 0b 46 3f
       0.13049415 0.77361685

Quant_3_param0 f4 [9]
000000 fe 17 db 3e 13 90 e6 bc 12 26 ea 3e a5 4d 9b 3e
       0.42791742 -0.028144872 0.4573217 0.30332676
000010 a4 db 0f 3f 43 47 4d 3f 71 14 be 3e 53 33 34 3f
       0.5619452 0.8018686 0.3712497 0.70390815
000020 01 dc 00 3f
       0.503357

Quant_16_param0 f8 []
000000 00 00 00 00 00 00 b0 3f
       0.0625

Quant_4_param0 f4 [4, 6]
000000 67 c2 af be 28 7e 0d bf 43 0e 93 bf ec 49 6b bf
       -0.34328005 -0.55270624 -1.1488727 -0.9190967
000010 3c be 50 bf a1 f3 6f bf ee b4 ed 3e 13 0c 82 be
       -0.81540275 -0.93731123 0.464271 -0.25399837
000020 ff ff 3f be 01 00 10 3f 7f c3 9e 3e 12 81 69 be
       -0.18749999 0.56250006 0.31008527 -0.22803143
000030 60 8a d0 3d 8b 9d 98 3e a3 ea 9f be 04 00 40 3e
       0.10182643 0.29807696 -0.312337 0.18750006
000040 61 f9 7e 3d 05 00 80 bd 64 8a 5c 3d e7 ad e6 3e
       0.062249545 -0.06250004 0.053842917 0.45054552
000050 6d 3e d7 be 5a 05 21 3e e8 08 7b 3d 03 00 80 bd
       -0.42039815 0.15724698 0.06128779 -0.06250002

Quant_5_param0 f4 [6]
000000 10 4c e2 3e 98 88 12 3f b5 0a 13 3f f4 75 bd 3e
       0.44198656 0.57239676 0.5743821 0.37004054
000010 49 2f b3 3e 76 8c 39 3f
       0.34997013 0.7247995

Quant_6_param0 f4 [6, 4]
000000 64 a1 15 bf ff ff 3f be fb ff 3f 3e 0b f1 6b bd
       -0.5844939 -0.18749999 0.18749993 -0.057602923
000010 e3 3d 82 3f 7f 9d 44 be 0a a8 86 bd 01 ae 07 be
       1.0175136 -0.19200705 -0.0657502 -0.13249971
000020 04 ee e5 3e 30 4f 2f bd f6 bb 1c bf 44 cf aa 3e
       0.44908154 -0.04280013 -0.61224306 0.33361256
000030 96 15 bc 3e 88 1f d8 bb 9a 7c 2c bf 1a 40 16 3f
       0.3673522 -0.0065955557 -0.67377627 0.5869156
000040 4e 66 45 3e 46 be 2a bf b2 a2 0d be ab 9b 04 3f
       0.19277307 -0.66696584 -0.13831595 0.5180003
000050 ea 2d 71 be dd ae 94 3b 7f 34 9b be 64 fe 7f 3d
       -0.23552671 0.004537447 -0.3031349 0.062498465

Quant_7_param0 f4 [4]
000000 fb ab 2d 3e 10 9f d6 3e a3 f9 e2 bd 02 00 80 3d
       0.16960137 0.4191823 -0.11082771 0.062500015

Quant_8_param0 f4 [9, 6]
000000 5f fd 10 3e f9 d4 bb bd 6a 6a fb 3e 12 9c bc 3e
       0.14159153 -0.09171481 0.49104625 0.36837822
000010 b1 86 7a 3d ff 88 0a be fb 5f 0a bf 02 00 e0 be
       0.061163608 -0.13528822 -0.54052705 -0.43750006
000020 9e d0 1d bf 75 c5 d2 be 16 47 c2 be 31 a6 2b 3f
       -0.6164645 -0.41166273 -0.3794486 0.6705046
000030 cb 0e 9a 3e cc a0 55 be 30 58 21 bf 37 39 39 3e
       0.3008941 -0.2086212 -0.6302519 0.18088232
000040 0b fb b1 bd 4e 99 6f be ff e1 08 3f 4f ab 27 3e
       -0.08690461 -0.23398325 0.5346984 0.16373943
000050 d9 f0 14 bf 79 14 12 3e 5d 41 97 3e 01 00 80 3d
       -0.58180004 0.14265622 0.29542056 0.06250001
000060 7b e0 6b be 01 00 80 3d cd 2d e9 be 7d ef 2c bf
       -0.23034851 0.06250001 -0.45542756 -0.6755293
000070 b0 d8 9e 3e 92 9a cb be 94 f0 e7 3e a3 bd d1 bd
       0.31024694 -0.39766365 0.45300734 -0.102412485
000080 90 5a 51 3e 00 29 04 be 1f 27 e9 be 34 5c 61 be
       0.20444703 -0.12906265 -0.4553766 -0.22007829
000090 e7 55 76 3e e4 dd ad be 2c d5 97 3e 15 41 26 be
       0.24056207 -0.33958352 0.29654825 -0.16235764
0000a0 9f 24 15 3e 5c 4c 09 be 19 4c ba be b9 ac 66 3e
       0.14564751 -0.13408035 -0.36386183 0.22526826
0000b0 96 ce 0e bf 28 e1 c0 be e7 84 83 bf 9d 13 31 3d
       -0.55783975 -0.3767178 -1.0274934 0.043231595
0000c0 c0 d7 db bd e4 b4 cf 3e a1 da 05 3f 86 29 6e 3e
       -0.107345104 0.40567696 0.52286726 0.23258027
0000d0 01 b9 0d bf 80 44 42 be
       -0.5536042 -0.18971443

Quant_9_param0 f4 [6]
000000 a8 07 1a be 39 92 dd 3e 00 00 00 00 60 85 c0 bc
       -0.15041983 0.43275622 0.0 -0.023501098
000010 88 92 83 be a8 49 2e 3d
       -0.25697732 0.042550713

Quant_10_param0 f4 [10, 9]
000000 a0 79 2e 3e fc 05 3d bd 5c 5f d3 3e 2c a3 ce 3e
       0.17038584 -0.046148285 0.4128369 0.40358865
000010 af d7 16 bd a1 33 68 be 74 49 8c be c5 64 e8 3e
       -0.036826786 -0.22675945 -0.2739979 0.4538938
000020 11 ef 32 be 9b ef 89 3e 4b ba 8f 3e 0d 27 c2 be
       -0.17474009 0.26940617 0.28071818 -0.37920418
000030 63 8d 30 3c 52 30 1e be ab 4f 9f 3d 81 96 2b be
       0.010775897 -0.1544812 0.07778867 -0.16756631
000040 eb 64 4d be c9 47 a1 3e 85 8c c4 be d4 a7 8c bd
       -0.20058028 0.3150008 -0.38388458 -0.06867948
000050 ac aa cd 3e b6 7a dd bc 7b 14 57 be 1c 45 d6 3e
       0.40169275 -0.027036052 -0.21003906 0.418496
000060 e1 98 bd be 8c 5c 78 bd 8e 69 5b 3e a0 97 00 bf
       -0.370307 -0.060635135 0.21426985 -0.5023136
000070 af 9e 4b be 07 f4 f5 3e eb c9 8e be 83 0b 49 3d
       -0.19884752 0.4803774 -0.27888426 0.049083244
000080 55 65 c1 3e bf 9b 08 3f 9b 30 fc 3e 5c 7e 05 bf
       0.37772623 0.5336265 0.49255833 -0.52145934
000090 99 c9 fc be b4 cf de bd 01 47 3e bd 38 a7 5e 3d
       -0.49372557 -0.1087946 -0.046454433 0.05435869
0000a0 a3 5e 8e be b7 5e f7 3c f2 3d 6b be cc 94 ed bc
       -0.27806577 0.03019653 -0.22972849 -0.029001616
0000b0 e1 1b 84 3e d7 5e 03 be a3 da 92 be 4a d0 18 bf
       0.2580252 -0.12829147 -0.28682432 -0.59692824
0000c0 74 05 e0 3c 29 0f 3b 3e 83 8d e2 be 3c 28 07 3d
       0.02734635 0.18267502 -0.4424859 0.032997355
0000d0 6a 8e 82 be c7 60 91 be ba 89 05 bf 47 77 0c 3e
       -0.25499278 -0.28394148 -0.5216328 0.13717376
0000e0 aa ed bd be fd 38 90 3e de 4d ac 3e bb 33 95 3e
       -0.37095386 0.2816848 0.33653158 0.2914103
0000f0 98 7d be be f5 82 51 3e 84 16 90 3e 30 6b 6f 3d
       -0.37205195 0.20460112 0.28142178 0.05845183
000100 cf 8c 01 3e ad 18 dd bd 00 00 e0 3e 30 29 4f 3e
       0.1265137 -0.10795722 0.4375 0.20230556
000110 50 a5 a8 3d 69 d5 7e 3d 81 76 ff 3e 9a a6 b6 be
       0.08234656 0.062215243 0.498951 -0.35673982
000120 42 d3 08 3f 29 ae e2 be 02 47 e3 3e c3 16 f0 3e
       0.53447354 -0.442735 0.44390112 0.46892366
000130 5a 34 5a 3e e5 f1 94 be 15 aa 9d be 7d af 44 be
       0.21309033 -0.290908 -0.30793825 -0.19207568
000140 d9 2d 82 bd e6 31 86 bc 16 04 52 3e d8 0a 21 3d
       -0.06356401 -0.016381215 0.20509371 0.039316982
000150 b8 09 76 3e c1 fb 5f 3e 9d 25 12 3f b1 15 d3 bd
       0.24027145 0.2187338 0.57088643 -0.10306872
000160 6a 4d 96 3e 39 3c fd 3d
       0.29355937 0.12365002

Quant_11_param0 f4 [9]
000000 86 81 ec bd b8 72 f5 bd fe 8a f3 bd d9 1d 1b be
       -0.11548142 -0.119847715 -0.11891745 -0.15148105
000010 bb 2f 88 3e 58 28 33 be 8b 70 55 be 6b 12 da 3e
       0.26598915 -0.17495859 -0.20843713 0.42592177
000020 91 22 ed 3d
       0.11578859

Quant_12_param0 f4 [29, 10]
000000 72 30 9a 3e 20 f2 c5 be 3b 26 5a be c4 52 86 be
       0.30115086 -0.3866129 -0.21303646 -0.2623502
000010 2f 63 97 3e 99 63 7f 3d f4 96 eb 3e 5d 00 40 be
       0.2956786 0.062350843 0.46013606 -0.18750139
000020 6a 42 da 3d 88 5c 30 be fe ea 55 be bb a0 cc 3e
       0.10657199 -0.17222798 -0.20890424 0.39966378
000030 ac 16 4a 3e 79 db 92 be 11 a6 33 3e 56 bb 2d be
       0.19735211 -0.2868307 0.17543818 -0.16965994
000040 7d a2 5c bd db 41 89 3e b2 10 b9 be 54 de b2 3e
       -0.0538659 0.26808056 -0.3614555 0.34935248
000050 94 73 f7 bd d8 82 5d 3e 6a 4e d0 3e 62 9e 0d bd
       -0.12082592 0.21631944 0.40684825 -0.034574874
000060 5f 62 69 be 3d 3e 90 3e 71 10 b6 3e 46 94 90 3e
       -0.22791432 0.28172484 0.3555942 0.28238124
000070 a7 9e 50 bb 09 cc af 3e 0d 85 21 3e bf ff 7f 3d
       -0.0031832845 0.34335354 0.15773411 0.062499758
000080 b7 75 37 be 16 ec 33 3e ad 01 da bd 4c 43 e2 bc
       -0.17915998 0.17570528 -0.10644851 -0.02761998
000090 8d 55 cd bd 2c 1b 67 bd 25 e3 8d bc 61 c2 1f be
       -0.10026083 -0.056422397 -0.017320225 -0.15601493
0000a0 ac 85 c1 be da 16 f1 3e 82 31 79 3e d4 81 b8 be
       -0.37797296 0.47087747 0.24335292 -0.3603655
0000b0 8f ea 7f bd 84 e7 b6 bd 3a 5a 14 be 78 09 ff 3e
       -0.062479552 -0.08930877 -0.14487544 0.49811912
0000c0 06 57 b1 bd 89 67 24 be 23 ef 36 be 10 f9 d4 3e
       -0.086591765 -0.1605512 -0.17864661 0.4159627
0000d0 96 ff 7f 3d 77 71 e6 3c 87 70 d7 bd 62 b0 af 3b
       0.062499605 0.028130276 -0.1051951 0.0053616026
0000e0 0c ec 3a be 8a 96 a8 3e 0e 6a 36 3d 8a 56 e9 be
       -0.18254107 0.32927352 0.044534735 -0.45573837
0000f0 40 38 b8 be 3b f8 b5 3e 31 00 80 3d da 41 48 bc
       -0.35980415 0.35540947 0.062500365 -0.0122227315
000100 8f cf 46 bd 03 28 11 3b 5d c3 54 3e eb 88 57 be
       -0.048537787 0.0022149093 0.2077765 -0.21048324
000110 c3 5a 06 be 3e 00 80 bd 84 44 65 be 07 00 80 3d
       -0.1312056 -0.06250046 -0.22389418 0.06250005
000120 52 d0 ad bd f5 f9 a2 be b0 ac 85 be 96 ff 7f bd
       -0.084869996 -0.31831327 -0.26108313 -0.062499605
000130 36 35 06 be 50 3c 38 3e bc 67 42 be 52 77 7d be
       -0.13106236 0.17991757 -0.18984884 -0.24752548
000140 03 2d c2 be e2 ff 3f be 59 a7 8f 3e 1a 42 61 bd
       -0.37924966 -0.18749955 0.28057364 -0.05499468
000150 1e bb d8 3d 54 2c 85 3e f9 a3 f6 3b 90 a4 a0 3e
       0.10582565 0.26010382 0.0075268713 0.3137555
000160 a5 c9 a2 be c2 ad b6 3e e0 a4 bb be 0e 53 de 3e
       -0.31794468 0.35679442 -0.36649227 0.4342274
000170 52 2c 54 3e e9 e3 6d be e9 39 bb bd 83 cf 50 bd
       0.20720032 -0.23231472 -0.09141905 -0.05097915
000180 a1 ff b3 be c8 7a ca 3d 12 91 88 bd c0 e7 93 be
       -0.35155967 0.098867 -0.06668295 -0.2888775
000190 f4 32 04 3c 3c 9f e8 3d 66 00 80 bd 5c d3 03 be
       0.008068789 0.113584965 -0.06250076 -0.12873596
0001a0 ce ab 8c 3e 24 56 01 3d d8 80 e4 bd 49 fd 3f 3e
       0.27474827 0.03157629 -0.111573875 0.18748964
0001b0 22 ea 35 3e 5d 5a cf bc 0f 84 41 bd 66 e2 7f 3d
       0.17765096 -0.025311643 -0.04724508 0.06247177
0001c0 30 83 3f be e3 69 6c bd 62 96 85 3d 97 f5 9f be
       -0.18702388 -0.05771817 0.06522824 -0.31242058
0001d0 7b 5a a2 3e 35 63 9d 3e 15 c1 0a 3e 53 bc 8a 3d
       0.31709656 0.3073975 0.13550217 0.06774201
0001e0 bd 28 6e bd 19 2f 51 3e 87 59 a4 3e dc ad 08 be
       -0.05814432 0.20428123 0.32099554 -0.13347572
0001f0 3a a6 83 be 76 66 87 3e 58 15 ae be 48 c5 a0 3e
       -0.25712758 0.2644536 -0.3400066 0.31400514
000200 3d 2b 13 3e 68 96 d1 3d af 04 c2 bc 4b 24 66 3e
       0.14371963 0.10233766 -0.023683874 0.22474782
000210 15 fe 51 be 3e aa 00 3e 77 5a 66 3e af de 8a be
       -0.20507081 0.12564942 0.22495447 -0.2712302
000220 a1 88 72 be bd 38 80 3d f4 b6 8c be 09 2a 35 3d
       -0.23684932 0.06260822 -0.27483332 0.04422954
000230 14 3f c9 be 1c 87 88 be 1f ae 07 be 23 7c 01 bd
       -0.39305937 -0.2666558 -0.13250016 -0.031612527
000240 bc 21 85 3d 30 bf ed 3d 3f 07 a0 3e 14 44 d0 3e
       0.06500575 0.11608732 0.31255528 0.4067694
000250 c4 1e 04 3e c9 75 a9 bd f8 c8 ae be 42 ac 49 bc
       0.12902361 -0.08274419 -0.34137702 -0.012309136
000260 81 03 af 3d 0e 4a 2b be 02 bb 3f 3d 7b 07 0a be
       0.0854559 -0.16727468 0.046809204 -0.13479416
000270 78 e5 d4 3e c0 60 45 bd 77 25 c4 be 82 46 d3 3e
       0.4158132 -0.04818797 -0.38309833 0.4126473
000280 0b e1 45 be 14 2a 44 3e 2c 71 a9 3e 84 80 ab be
       -0.19324128 0.19156677 0.33094156 -0.33496487
000290 2e 9a 7a be ee f6 b5 3e b8 76 9d bd 02 0d e8 3e
       -0.24472877 0.35539955 -0.076886594 0.45322424
0002a0 83 f6 7b 3e 06 3c 46 3e 18 76 20 3e dc 6b 40 be
       0.24605756 0.19358835 0.15670049 -0.18791145
0002b0 f7 ff 7f bd fd d9 87 3e 70 9b 97 be 42 b6 6c 3e
       -0.062499966 0.265335 -0.29610777 0.23116401
0002c0 60 18 03 3c 83 3a 9f 3e 0f 2e a1 be 29 23 51 bd
       0.008001417 0.31099328 -0.31480452 -0.051058922
0002d0 94 17 8f 3e a0 e0 cb bd 70 96 29 3e 5c 22 8f bd
       0.27947676 -0.09954953 0.16561294 -0.069889754
0002e0 63 73 69 3e 14 1c 72 3e 94 ff 9f 3e 04 dc ac 3e
       0.22797923 0.23643523 0.31249678 0.3376161
0002f0 02 56 1e 3e c3 bc e4 bc a2 8c 89 3e ce 32 aa be
       0.15462497 -0.02792204 0.26865107 -0.33241886
000300 5a 8b ad bc 7e 47 57 bd 2e e1 9a 3d 4e 54 9c bd
       -0.021184612 -0.052558415 0.07562481 -0.07633267
000310 e1 2f 53 be 8b 2f 13 3e 68 06 30 be 0a 86 53 3e
       -0.20623733 0.14373605 -0.17189944 0.206566
000320 34 a9 b1 be 89 2a ac 3e 23 af 98 3d 96 fb c5 bd
       -0.34699404 0.33626202 0.0745528 -0.09667127
000330 35 62 f8 bd 42 5d 20 3d 2d 44 af 3d a8 43 e4 3e
       -0.121281065 0.039151438 0.085579254 0.44582868
000340 59 58 d6 3d 70 41 1a be 80 58 7d be 7e 0e 42 3d
       0.1046607 -0.15064025 -0.24740791 0.047377102
000350 5b 8c 9a 3d 0c 98 89 be 05 c9 cc 3e 48 ce 04 bd
       0.07546302 -0.26873815 0.39997116 -0.032423288
000360 50 5f c8 3e 4e 63 7f bd d9 71 f8 ba d4 b0 38 3d
       0.39135218 -0.062350564 -0.0018954828 0.04509051
000370 d4 04 34 be d1 5e cf 3e d0 01 cf 3e b9 cc 10 3e
       -0.17579967 0.40502027 0.4043107 0.14140595
000380 e5 9a 82 be 00 00 a0 3e 6a 11 e2 bd d5 6e 9d 3e
       -0.255088 0.3125 -0.11038478 0.3074862
000390 06 2b a2 3d f3 14 06 3c 55 26 9d be 50 6a 33 3e
       0.07918362 0.008183706 -0.30693308 0.17521024
0003a0 db b5 39 3e c4 1c 2d be f7 be 3e 3e 77 05 65 3e
       0.18135779 -0.16905504 0.18627535 0.22365366
0003b0 a2 fb ae bd 9e 9b 85 3e 17 81 98 bd 63 24 e3 bc
       -0.08544089 0.2609529 -0.07446497 -0.027727311
0003c0 e8 56 34 be 5a 3f 9e ba ba 77 bd 3c df 68 64 be
       -0.17611277 -0.0012073324 0.02312838 -0.2230563
0003d0 b9 99 3e be ee e7 1a 3e c4 6a eb 3e 69 78 fd bd
       -0.18613328 0.15127537 0.45979893 -0.12376482
0003e0 98 5c c6 be 29 86 d0 3e b8 b5 cf bb 79 2d 95 3e
       -0.38742518 0.40727356 -0.0063388012 0.29136255
0003f0 e1 ad 02 be 84 ae ea bc 92 03 77 3e 87 de aa bd
       -0.12761642 -0.028647669 0.24122456 -0.08343225

Quant_13_param0 f4 [10]
000000 f8 f8 95 bd 52 0e ad 3e f6 68 80 bd 99 b7 9a bd
       -0.07322878 0.33799988 -0.0627002 -0.0755455
000010 69 2c 82 bd fe 93 71 bd b3 69 14 be 6b ad a9 bd
       -0.06356127 -0.058979027 -0.14493446 -0.0828503
000020 99 65 01 be d3 0c 94 bd
       -0.12636413 -0.072290085

Quant_14_param0 f4 [57, 29]
000000 e8 da 51 3e c1 ac 94 bd ef 42 a0 3d 4b 42 a2 3d
       0.20493662 -0.07259513 0.078252666 0.07922801
000010 36 b9 55 be ac f4 c2 bd 88 a9 2f 3e f3 47 14 bb
       -0.20871434 -0.09519324 0.17154515 -0.0022625893
000020 32 a0 2f 3e 09 28 cf bd f3 18 fe 3c d1 08 41 be
       0.17150953 -0.10115058 0.031017756 -0.1885102
000030 6d 90 76 3c 74 82 21 be b0 93 33 3e f7 a2 d4 3c
       0.015049082 -0.1577242 0.17536807 0.025956614
000040 14 b1 4f 3e da 13 c1 3e 57 63 3d be 77 d8 b5 bc
       0.20282394 0.37710458 -0.18494926 -0.022197945
000050 04 f5 35 be 83 00 40 be b0 10 0a be e6 99 72 3d
       -0.17769247 -0.18750195 -0.13482928 0.0592288
000060 61 98 d6 3e f9 96 14 3e 2d ff 9f be 82 8e 66 3e
       0.4191313 0.14510716 -0.3124937 0.225153
000070 57 65 13 be 76 ef b6 bd e7 fc 16 bd b1 a7 7e 3d
       -0.14394127 -0.08932392 -0.03686228 0.06217164
000080 b5 7c 79 3e d1 c6 c0 3e d6 bd 18 3c 57 ae f8 bd
       0.24363978 0.37651685 0.009322604 -0.12142628
000090 9e 29 f6 3d b1 d7 05 be 51 00 40 3e dc d2 b2 3c
       0.120196566 -0.13070561 0.1875012 0.021829061
0000a0 bc 5d d6 3c 8f de c9 bb c7 b7 40 3d 8a 11 57 3d
       0.026167743 -0.0061605643 0.047050264 0.05250696
0000b0 48 7e a7 bd bc 56 b7 3d c7 b6 14 bc f4 4a 97 bc
       -0.08178383 0.0895209 -0.009076781 -0.018468358
0000c0 8c e3 58 be 73 88 a7 3c ca 57 8c bd 7e fc 0a 3e
       -0.21180552 0.020450806 -0.06852682 0.1357288
0000d0 1b ca 55 bd db 80 87 3d 2c 40 12 3d 80 ea a0 3e
       -0.052194696 0.06616374 0.03570573 0.3142891
0000e0 f7 67 eb bd 16 a7 a7 3d 62 35 26 3d c5 7a 54 3e
       -0.11494439 0.08186166 0.040578254 0.20749958
0000f0 4b e8 1e be 36 bb 98 3d 14 7a 5a be ee 05 82 3c
       -0.155183 0.07457583 -0.21335632 0.015871968
000100 a0 d8 4d be b0 61 49 3e f9 fe e4 bd fb b1 f4 3d
       -0.20102167 0.19666171 -0.11181445 0.119480096
000110 45 63 5f 3e 44 bd 7f bd 59 16 a9 3d 20 a7 5a be
       0.21815212 -0.062436357 0.082562156 -0.21352816
000120 ca df 7f bd f3 b1 ac 3d 13 59 94 3c 15 fe 79 3d
       -0.06246928 0.084323786 0.01810888 0.061033327
000130 de 9c 89 bd a0 0b 9a bd d5 13 27 3d 14 c6 ec bc
       -0.06719373 -0.075217485 0.040790398 -0.028903045
000140 8d 49 80 be eb 03 1c bd 74 52 01 3e 40 5a 46 be
       -0.25056115 -0.038089674 0.1262911 -0.19370365
000150 d6 2b c2 3d 3d ed 39 be 58 ea b7 3d d3 6e 21 3b
       0.09481017 -0.18156905 0.089802444 0.0024632707
000160 24 99 49 be 67 b0 80 bd 04 89 80 bd f7 b5 7f bb
       -0.19687325 -0.06283646 -0.06276134 -0.0039018372
000170 ce 79 ce bd 2e d9 3c 3e 05 a9 b4 bd 2e 12 92 3d
       -0.10081826 0.18442222 -0.088213004 0.07132374
000180 31 6d 85 3e 11 54 5c bc ea 97 a8 bd 73 04 3d be
       0.2605987 -0.013447777 -0.082321 -0.18458728
000190 a7 b5 25 3e 94 dd 98 3b 31 15 50 be f7 6f 0f 3e
       0.16182576 0.004665086 -0.20320584 0.14007555
0001a0 35 1f 53 bd 69 7c 77 3d f5 1e 3f 3e e7 36 26 bd
       -0.051543433 0.06042138 0.18664153 -0.040579703
0001b0 2d 28 7d 3d bd 22 ca bd 96 a8 b0 bb 41 af 1a 3e
       0.061805893 -0.09869907 -0.0053911908 0.15105917
0001c0 61 2e d0 bd 59 b7 52 be 39 1b 5c be 57 c2 6f 3d
       -0.10165096 -0.20577754 -0.2149476 0.058534946
0001d0 59 20 04 bd 81 ed 0c 3e 5c 9d fc 3d bb 70 15 ba
       -0.03225741 0.13762476 0.123347014 -0.0005700697
0001e0 ea 55 d3 3d c5 8e 34 3e c8 fc 41 bc 38 40 2c bd
       0.10319121 0.17632587 -0.011840053 -0.04205343
0001f0 7f ed 0b bd 2d ff 7f bd d4 33 66 3e c8 12 6c 3d
       -0.03416204 -0.062499214 0.22480708 0.0576351
000200 81 ca 64 be ce a2 5f bd 96 60 4b be df 15 ed bd
       -0.22342874 -0.054598622 -0.19861063 -0.11576437
000210 b0 16 ea 3b a8 fb 83 3d 57 43 85 bc 2a 9a 13 be
       0.007143818 0.06444484 -0.016267462 -0.14414278
000220 c3 5a 0c bd de cd 1c 3e 31 4d 3e be 3d 53 28 be
       -0.034266245 0.15312907 -0.18584134 -0.16438003
000230 0e a9 c5 3d 33 49 5e be b6 e6 10 bd 5b a8 60 3e
       0.09651385 -0.21707611 -0.035376273 0.21939223
000240 4d 38 1e 3d 96 f3 84 bd e0 cf 6b 3d 3e 20 de 3d
       0.03862791 -0.06491773 0.057571292 0.108459935
000250 8e 45 29 3e 2f c0 02 3e 3f 9c a7 bd 73 6f c8 bd
       0.1653044 0.12768625 -0.081840985 -0.09786882
000260 80 b2 d6 3b d3 a0 30 be c1 bd 39 3e 82 86 2c be
       0.0065520406 -0.1724885 0.18138792 -0.16848186
000270 cb db 01 3d 80 c7 3b be 87 d2 d3 bc 75 2e 82 3d
       0.03170375 -0.18337822 -0.025857223 0.06356517
000280 a9 56 3b 3e 81 50 5b 3d 18 4b 8a be 18 6b 06 3e
       0.18294777 0.05354357 -0.27010417 0.1312679
000290 f8 b0 00 bd 79 f1 db bd 89 26 0a be 60 90 4b be
       -0.03141877 -0.10739417 -0.13491262 -0.19879293
0002a0 66 66 2a 3e 75 fd 7f bd 22 77 37 3d 18 ac bf bd
       0.16640624 -0.062497575 0.04479135 -0.09358996
0002b0 9c 0b 53 3d bd 33 05 3e c0 53 2b 3e f5 fe 7f bd
       0.051524743 0.13008018 0.16731167 -0.062499005
0002c0 ba 60 39 3b c6 87 c5 3d be ff e4 3d 57 49 d0 3d
       0.0028286413 0.09645037 0.111815915 0.101702385
0002d0 af 84 83 bd 9e 50 24 3e ab 55 20 3e 48 09 6b bd
       -0.06421792 0.16046378 0.1565768 -0.0573819
0002e0 01 ef a4 bd 7a 9c 6f be f5 ab 81 be b0 6f 9e 3e
       -0.08053399 -0.23399535 -0.25326505 0.30944586
0002f0 06 0f 44 bd a3 0b 86 3b 22 78 f7 3d 51 90 8b be
       -0.04786589 0.0040907427 0.120834604 -0.27258542
000300 64 51 43 3d c8 0d 0b bd 9e 00 1e 3e 2a fa 59 bc
       0.047685042 -0.03394869 0.15429923 -0.013304273
000310 d3 6f 80 be 81 42 51 3e 0e 47 7c 3d 81 3f 98 be
       -0.25085315 0.20435525 0.0615912 -0.2973595
000320 67 63 1f be ef 63 3b bd 24 3f 63 3d 98 fe fb bc
       -0.15565263 -0.0457496 0.055480137 -0.030761048
000330 b7 09 ce bd f0 0b 8c 3d 41 e0 16 3d 49 5b 32 be
       -0.10060447 0.068382144 0.03683496 -0.17417635
000340 01 78 21 3d 83 c3 8f 3d e3 52 4b bd 2e b8 73 bd
       0.039421085 0.07019713 -0.049639594 -0.05950182
000350 51 06 ba 3d 23 4e 09 be 64 db 67 3e 20 f4 07 3e
       0.09083236 -0.13408713 0.22642285 0.1327672
000360 fd e4 80 3c 3a fc 7f bd da a9 0b 3e af 81 8c be
       0.01573419 -0.0624964 0.13639012 -0.2744269
000370 12 ae 1a 3e 14 82 30 be 93 b9 0a 3c bf 25 59 be
       0.15105465 -0.17237121 0.008467096 -0.21205805
000380 c5 44 0b be e6 a4 63 3d 74 f5 cd 3d 87 a7 23 3d
       -0.13600452 0.05557718 0.10056582 0.03995469
000390 d7 b0 b9 3d 0a c2 a2 bd a6 fe 3f be d8 e3 15 3e
       0.09066933 -0.07947166 -0.18749484 0.14637697
0003a0 ef 70 39 be 68 5e 43 be 0d a2 8e bd c5 51 c0 3b
       -0.18109487 -0.19078982 -0.069645025 0.0058691227
0003b0 ff b3 40 3d 98 6a 5d 3d fc 83 90 3d 9a 17 4a be
       0.047046658 0.054056734 0.07056424 -0.19735566
0003c0 44 4b c3 3c 64 9f 0a be 8a dc 49 be 56 29 77 3d
       0.0238396 -0.13537365 -0.19713035 0.060342155
0003d0 ac a2 6e bd df b0 eb 3c 34 65 53 bc ab 94 46 3d
       -0.058260605 0.028770862 -0.012902547 0.048481625
0003e0 df b8 e0 bd 2d 78 a2 3d ad 86 9c bd e1 37 9f 3d
       -0.10972761 0.07933078 -0.07642875 0.0777433
0003f0 e1 90 39 be 22 5b 09 bd 7f d9 59 be 83 56 5e 3d
       -0.18121673 -0.033534177 -0.21274374 0.054281723

Quant_15_param0 f4 [29]
000000 92 c5 4e bc 64 85 ba 3c 24 ae 7e bd 74 ea 18 3e
       -0.012620347 0.022768684 -0.062177792 0.14933187
000010 f8 17 6a 3e 58 12 a3 3e 80 5f cb 3c 05 7d 73 3e
       0.22860706 0.31849933 0.024825811 0.2377816
000020 04 fb 86 3c a8 36 7b 3e 84 3f 6f bd ea 19 80 bd
       0.016477115 0.24532568 -0.058410183 -0.06254943
000030 65 4f 2a 3e 56 39 4f 3d ef 9e 82 bd e2 7e 5e 3d
       0.16631849 0.05059179 -0.063779704 0.054320224
000040 14 b4 93 3d 60 fa 7f bd 7c f1 18 bd 7e c8 60 bd
       0.072120816 -0.062494636 -0.037339672 -0.054878704
000050 c5 3a 6b 3d a6 b2 9a 3c 68 1a 1e 3e 35 cf b4 bd
       0.057429094 0.018884014 0.1543976 -0.08828584
000060 09 02 1b bd 19 57 d1 3d 76 d5 aa 3e 64 ad bc 3d
       -0.037843738 0.10221691 0.33365983 0.09212759
000070 91 f8 13 be
       -0.1445029

Quant_1_param1 f8 []
000000 00 00 00 00 00 00 c0 3f
       0.125

Quant_2_param1 f8 []
000000 00 00 00 00 00 00 c0 3f
       0.125

Quant_3_param1 f8 []
000000 00 00 00 00 00 00 c0 3f
       0.125

Quant_4_param1 f8 []
000000 00 00 00 00 00 00 c0 3f
       0.125

Quant_5_param1 f8 []
000000 00 00 00 00 00 00 c0 3f
       0.125

Quant_6_param1 f8 []
000000 00 00 00 00 00 00 c0 3f
       0.125

Quant_7_param1 f8 []
000000 00 00 00 00 00 00 c0 3f
       0.125

Quant_8_param1 f8 []
000000 00 00 00 00 00 00 c0 3f
       0.125

Quant_9_param1 f8 []
000000 00 00 00 00 00 00 c0 3f
       0.125

Quant_10_param1 f8 []
000000 00 00 00 00 00 00 c0 3f
       0.125

Quant_11_param1 f8 []
000000 00 00 00 00 00 00 c0 3f
       0.125

Quant_12_param1 f8 []
000000 00 00 00 00 00 00 c0 3f
       0.125

Quant_13_param1 f8 []
000000 00 00 00 00 00 00 c0 3f
       0.125

Quant_14_param1 f8 []
000000 00 00 00 00 00 00 c0 3f
       0.125

Quant_15_param1 f8 []
000000 00 00 00 00 00 00 c0 3f
       0.125

Quant_17_param0 f8 []
000000 00 00 00 00 00 00 b0 3f
       0.0625

Quant_18_param0 f8 []
000000 00 00 00 00 00 00 b0 3f
       0.0625

Quant_19_param0 f8 []
000000 00 00 00 00 00 00 b0 3f
       0.0625

Quant_20_param0 f8 []
000000 00 00 00 00 00 00 b0 3f
       0.0625

Quant_21_param0 f8 []
000000 00 00 00 00 00 00 b0 3f
       0.0625

Quant_22_param0 f8 []
000000 00 00 00 00 00 00 b0 3f
       0.0625

Quant_23_param0 f8 []
000000 00 00 00 00 00 00 b0 3f
       0.0625

Quant_24_param0 f8 []
000000 00 00 00 00 00 00 b0 3f
       0.0625

Quant_25_param0 f8 []
000000 00 00 00 00 00 00 b0 3f
       0.0625

Quant_26_param0 f8 []
000000 00 00 00 00 00 00 b0 3f
       0.0625

Quant_27_param0 f8 []
000000 00 00 00 00 00 00 b0 3f
       0.0625
